dacon/hai/model.pt (torch, 739811 bytes, 26 tensors)

rnn.weight_ih_l0 f4 [180, 63]
00000000: cc92 19bd b44a 323d 9d8a eabd a4a6 8a3d
00000010: d4cb ba3d d675 80bd 8c44 e1bc d50f 47bd
00000020: eb10 cc3c 87bf b1bd 45d5 02bd e240 9a3c
00000030: 7075 7b3c 3ec4 903c 711b cc3c 7fab 38bd
00000040: b5b1 2dbd 3f30 393e 808d 0cbe 1406 3bbe
00000050: 3ae7 4b3d 7db1 4b3e 746b b53d d508 4cbd
00000060: e873 803e 867b d73d b89e bfbd f7c5 193d
00000070: 37db 89be ca36 6a3d 1ecc 13bd 9e87 3cbd
00000080: 646a d2bd bf7b cbbd a9a4 99bd 76b8 423e
00000090: 038a e3bb ee8b d5bd 9c93 d7bd effc e6bd
000000a0: 4461 2ebd 2842 4f3d 3954 ac3d e16a a93d
000000b0: 6a66 c43d 4dad 03be 9acb 513e 8055 c63d
000000c0: 4bfc 3cbc 58b6 9d3c ac74 c03d 8847 113c
000000d0: 762b 76bd 6466 283e 344b 3a3d 20ea 293c
000000e0: 4963 153e bb2a 13be 8ed1 dcbc 6ea1 27bd
000000f0: fdca 573c 692d 903d 80bd 543e 6b6d 8c3c
00000100: 5f31 163d 43d6 7fbe ba93 76bb df74 1ebe
00000110: e82f 6d3d 7ae1 f7bd 0964 1abe dd52 6dbe
00000120: db15 023e 9abf 383d b34c 16bd 9b3f a53d
00000130: 4d78 e43d 1a45 82bd 0558 d83c f34a 9b3b
00000140: 57bc a6bd 9281 c03c 4f49 20bd 0807 423d
00000150: 154e ed3c dfea b1bd 0870 083c dc16 34be
00000160: 294a 4f3e ca36 2b3d d4c1 bbbc 0727 cbbd
00000170: 9d6d f0bd cdf3 5fbd 1c8c dcbd c4ed 1bbd
00000180: d723 5ebd ece9 8ebd 9c61 7f3d fd64 11bd
00000190: 27b4 a5bd a0a5 df3d 1ce8 42be 3e79 2abe
000001a0: 3656 ecbd 884e 67bd 7ea3 ccbd d1eb 85bd
000001b0: b62f 55bd dc18 743e 87d8 adbd d305 d13d
000001c0: 46b5 303e cda6 73bd 71c1 2fbc 20d0 653d
000001d0: bd67 053d b311 b63c 7037 16be 4949 b53d
000001e0: 9e4d bfbd 7210 71bd 105c ecbd 3b75 fc3d
000001f0: 651c 0f3e 919a 7fbb a05b 943c 7717 343e
00000200: 766b 4dbe 0db6 83bd 1a18 7f3c 03c0 a03c
00000210: 8b49 dcbb 4b85 3ebe ceba 9dbd 8502 b03d
00000220: 8d3a f63c 531c f7bc c03e 80bc 0073 9f3d
00000230: 7cf1 75bd 4950 01bd 4509 033e f231 383c
00000240: fda1 8c3d 77a2 75bc 2965 613d 4aa4 c93d
00000250: 28ef ecbd d2eb 6e3d 19ab e6bc 99be 313d
00000260: 09a3 0ebe 0110 fd3d 54ac 9bbe cc00 60be
00000270: c429 d2bd 3097 1e3e 46ec 943d 5d88 4bbd
00000280: cae8 03bd 43a8 6fbd 1246 0b3d 4561 0e3e
00000290: 59fa 393e aa01 e1b8 d20d 673d f660 9f3d
000002a0: 3135 813b af81 793d 7257 3e3c 0b5d 943c
000002b0: e0fd 24bd 26dc 2b3e d877 2a3d ef80 bc3d
000002c0: c213 fb3d 2aa1 c53c ca2b e8bd 4e84 bb3d
000002d0: b478 84bd 23eb b53d 6951 303e 3480 673d
000002e0: d187 653c 135f db3d 70d0 5d3e 9bc7 d83d
000002f0: 8d3f cdbd 894a 963e a20c ae3d 4e92 7f3e
00000300: 4398 2bbe a455 2b3e 5019 e6bc 2bee 04bd
00000310: c442 dbbc 7189 2a3c 419e 073e d63a ef3c
00000320: 7009 123d bded 1fbe 1a40 38be 3719 71bd
00000330: 0080 afbe 18e5 d7bc 4671 123e 47f4 87be
00000340: 4339 0fbe d60e a4bd bf67 413e f124 23be
00000350: 4ecf 1b3d 2c53 37be b586 8abd 8c2d 16bc
00000360: 4f90 633d d649 883d 9314 28bd dec0 873e
00000370: c9e0 a03b 078f 57bb 4841 aa3d 46c8 d3bd
00000380: 15c3 a53d ca6d 7d3e c531 dbbd 218e 81bc
00000390: 1a87 a0be 9b16 c53d 218c 6f3d 5daa 303e
000003a0: 9c1b 243d 450a 5c3d 0ad4 5ebd cc96 603e
000003b0: 9b27 1fbe 3ee0 b2bd 66ce b13d eee2 f1bd
000003c0: 0a0d 693e e02d 96bd e66f 16be 7211 d23d
000003d0: 29c3 0a3e 1b17 0c3c 0ca3 08bd 6d8e 023d
000003e0: d635 3ebe 7c20 8e3d a2d5 2fbe 7886 fc3d
000003f0: 86ac e4bd 9e86 283d 78bc df3d 4dbd 193e
-0.037493512 0.043528274 -0.1145222 0.067700654 0.091209084 -0.062724754 -0.027498506 -0.048599083
0.02491041 -0.08679109 -0.03194167 0.018829767 0.0153478235 0.0176717 0.024915429 -0.045085426
-0.042405803 0.1808481 -0.13725853 -0.18264037 0.04978106 0.19891925 0.08858386 -0.04981311
0.2508843 0.10521607 -0.09356445 0.03754231 -0.2692506 0.057181157 -0.036083333 -0.046027772
-0.10274199 -0.09935712 -0.075021096 0.19015679 -0.0069439425 -0.1042708 -0.10526201 -0.11278712
-0.04257323 0.0506002 0.08414502 0.08272339 0.095898464 -0.12859078 0.20487824 0.096842766
-0.011534761 0.019251987 0.093972534 0.008867152 -0.06010004 0.16445309 0.045481876 0.010370761
0.14588656 -0.14371769 -0.026955392 -0.040925436 0.013170955 0.07039911 0.20775414 0.017142018
0.036668178 -0.24984078 -0.0037624673 -0.1547427 0.057907015 -0.12103553 -0.15077223 -0.23176141
0.1270365 0.0451046 -0.03669424 0.080687724 0.11155758 -0.06360836 0.026409158 0.0047391593
-0.08141392 0.023499284 -0.039132413 0.047369987 0.028967896 -0.08687376 0.008327492 -0.17586845
0.20243134 0.041800298 -0.022919573 -0.09919553 -0.11739657 -0.054675866 -0.10768911 -0.038068548
-0.0542334 -0.06978211 0.062348947 -0.0354967 -0.08091002 0.10920262 -0.19033855 -0.16647813
-0.11539881 -0.056471378 -0.09992121 -0.06539119 -0.052047454 0.23837608 -0.08488565 0.10206189
0.1725665 -0.059485245 -0.010727272 0.056106687 0.032569636 0.022225237 -0.14669585 0.08851869
-0.09340976 -0.058853574 -0.11540997 0.123270474 0.13975675 -0.003900204 0.018110096 0.17587076
-0.20060524 -0.06431208 0.015569711 0.019622808 -0.006722634 -0.18605535 -0.07701646 0.085942306
0.030057216 -0.030164873 -0.015654922 0.077856064 -0.06004475 -0.031570707 0.12796505 0.011242377
0.06866834 -0.014992348 0.055028114 0.09845789 -0.11569053 0.058330365 -0.028157758 0.04339466
-0.1392938 0.12356568 -0.30404913 -0.21875304 -0.102618724 0.15487361 0.07271628 -0.049690593
-0.032204427 -0.058510076 0.03400237 0.13904293 0.18161906 -0.00010729146 0.056409664 0.07782166
0.0039431085 0.06091469 0.011617528 0.018110773 -0.040281177 0.16783199 0.0416182 0.0920428
0.12259628 0.0241247 -0.11336477 0.091560945 -0.06468335 0.088827394 0.17218556 0.05651875
0.014009432 0.10711493 0.21661544 0.10584947 -0.10021887 0.2935374 0.08498503 0.24958155
-0.16757302 0.16731888 -0.028088242 -0.032453697 -0.026765235 0.010408745 0.13243963 0.02920286
0.03565353 -0.15618034 -0.17993203 -0.058861937 -0.34277344 -0.026354358 0.14301023 -0.26553556
-0.13986687 -0.08010642 0.18887232 -0.15932061 0.038039498 -0.17902821 -0.067639746 -0.009166133
0.055557545 0.06654708 -0.041035246 0.26514333 0.004909609 -0.0032891647 0.08313233 -0.103409335
0.080938496 0.24748912 -0.10702852 -0.015814843 -0.31353074 0.09623452 0.058483247 0.17252488
0.040065393 0.05372073 -0.054401435 0.21932524 -0.15542452 -0.08734177 0.086819455 -0.118108615
0.2275888 -0.07332969 -0.14691123 0.10257234 0.1355101 0.008550431 -0.03335862 0.03187411
-0.18575224 0.0693979 -0.17171338 0.123303354 -0.11165719 0.041144006 0.109246194 0.15013619

rnn.weight_hh_l0 f4 [180, 60]
00000000: 3bdb ecbd 5650 ca3d 3275 5b3e 5f84 8f3d
00000010: 3399 85be 8e76 783e 40f9 183e d3cb 30be
00000020: 4498 03bd 9c6c 18be bf28 75bd 74b7 06be
00000030: 35a6 60be 7137 183e 19ab 0cbe 2564 32bd
00000040: 271f 7d3c 8cd7 83bd bca3 70bd 1cba 6dbe
00000050: cc60 fcbd 5e57 9bbd 4a90 6d3e 652d ae3d
00000060: 0d98 9abc 4efc 10bd 1516 2abe 2867 e7bd
00000070: 54a5 df3d b794 073d 12a5 b43c fe32 54bd
00000080: 3efe 74bd 5b6b 4bbe 1894 2bbe 2626 5c3e
00000090: b327 41be 4f2a e43d a5c5 ae3d 4182 03be
000000a0: cf61 053e ca25 03be 5eb8 20bd 18fa a53b
000000b0: b319 c0bd 07d8 893e 3826 033e 7b19 cbbc
000000c0: 24e5 7b3d 61b3 3e3d 53e3 3cbd dfb2 e4bb
000000d0: 1eb7 df3d 55ce 863d fa7f c5bd 7e19 233e
000000e0: 91c5 0a3d 84e9 bb3d 7706 a93e 1b35 9b3d
000000f0: e0c9 3bbd 3912 1a3f 9fd0 b1bc 8efe 6d3d
00000100: cc21 463e bd28 5d3e f6de 57be e8b5 83be
00000110: a365 023d 4c6e c63d 0580 09bd 8a76 d4bd
00000120: ff03 0dbe 5fdd 3dbe 909f 343d d3f4 8d3d
00000130: 9676 25be 7190 e6ba c22b a43d 2ca9 8c3e
00000140: 9bb2 103e 330b 34bb 1e90 693c 82e3 d0bd
00000150: 3371 123c 92fa a9bd bfbb ca3d 9cfe 393c
00000160: f6a2 4bbb ecea d53d bdc0 82be def1 20be
00000170: befe 16bc 5022 2cbe a6db 323e 7aeb 80bc
00000180: 2fe2 02be ff79 533c 8988 f13d ea54 b33d
00000190: d2dc b5bd 1f1b 84bd 48df 083d e65a 5e3e
000001a0: b3fd 95bd 77c0 4f3e 2920 f6bc b62b 28bd
000001b0: ef07 23be d9d1 29bc 7381 52be e412 eabd
000001c0: f264 6c3e 8d53 223e 079e b8bd de29 923d
000001d0: b60c 96bd c2a1 5b3d 16d7 08bc e497 d73d
000001e0: f666 443e db2e d6bd d0f9 183d 00c0 0cbe
000001f0: 9308 6c3e 83e3 41bd 0969 f23d c217 77be
00000200: 0e34 e3bd 55f6 213d 8ff0 06bd 5e5b 893e
00000210: 654f dfbc 1cc2 9fbd cbef 173d 02e6 24bd
00000220: d0bf 063d 3bc2 00be 1cfe f5bd f9d8 4b3e
00000230: 0c09 b83c d762 853c 621a 3f3e 0e1d 39be
00000240: 3e8a 53be 43a4 44be 8caa 40be 4048 1bbe
00000250: 5eac b1bc e0a9 c2bd 7f7c 16bd a308 543e
00000260: c6e2 48bb 170b d33c 77c8 2fbe effd 343d
00000270: c29e 703c 7372 86bc aa2a 59bd fff9 b33c
00000280: 0278 f0bc f25b 853d 7b90 e6be 3cee 0a3d
00000290: 9426 393d a6c6 4fbd e34d 273e 003a 17be
000002a0: 81fa a5bd b411 f2bd 8fd9 8e3e 0af1 01be
000002b0: f1a6 db3c bb58 42be a4cf 8b3e 54fe cbbe
000002c0: f4c2 85bc 1045 66bc cf4e efbe c761 bc3e
000002d0: 3f0c 253e 3a8d babd 0897 a03e 52cf 733d
000002e0: 2e34 59be d0a6 4fbd 6bee 143f ec30 2b3e
000002f0: d3ef 653e fd2b d2bd 7ed1 303d e79c 5a3e
00000300: 3eed 3abe 3881 a03d 802e a5be 9768 3abe
00000310: 4fd7 293e cdcb 393e f376 5fbd 3672 6d3e
00000320: 19ba e3bd 02f4 e7bc 4343 8bbd bddd b83e
00000330: da8e ae3e 2e2b 3bbe eb0c 2d3e 101a abbc
00000340: 046b 0fbe d5d3 363c 4d38 bbbc 9edb 41be
00000350: 4767 2dbe e674 373e 2556 583d 7397 343e
00000360: 9100 8e3e fc9b ebbd 24f4 e33d 7f07 75be
00000370: b774 e6bd 8026 bf3e 425f b93c 2657 38be
00000380: feed e33d 77c0 d8bd 0f89 d2bd b5e5 1e3e
00000390: d067 61be 6463 663e 7ca1 2bbd 6612 953e
000003a0: 61fe dc3b bc1d a43d de62 703e 4dbf 50bd
000003b0: 0c72 f5bd 662b 213e 0d02 673e aafa 5fbb
000003c0: cf7f 82bb afbc e1bd 287d ddbd 66c1 353c
000003d0: e0b2 073f 611c 0abe 7d26 8dbc f2e3 083e
000003e0: 6bc3 acbe 0f45 61bc f350 20be ecd0 853e
000003f0: 5520 a53d e561 e53d 4f4e 43be 3fb8 343e
-0.115652524 0.09878604 0.21431425 0.0700767 -0.26093444 0.24263975 0.14938831 -0.17265253
-0.032127634 -0.14885181 -0.05985331 -0.1315592 -0.21938403 0.14864899 -0.13737144 -0.043552537
0.015449322 -0.06437597 -0.0587499 -0.23215526 -0.1232315 -0.07585023 0.23199573 0.08504752
-0.018871332 -0.035396867 -0.16609986 -0.11298972 0.10920206 0.03310081 0.022051368 -0.051806442
-0.059812777 -0.19865172 -0.16755712 0.21498927 -0.188628 0.11140882 0.085337915 -0.12842657
0.13025592 -0.12807384 -0.039238326 0.005065214 -0.09379902 0.26922628 0.12807548 -0.024792423
0.061497822 0.046557788 -0.04611523 -0.006979331 0.10923599 0.065823235 -0.0964355 0.15927693
0.03387982 0.09175399 0.33012745 0.075784884 -0.04584682 0.60184056 -0.021705924 0.05810409
0.1934883 0.21597572 -0.21081147 -0.2572472 0.03183521 0.09689006 -0.033569355 -0.10374172
-0.13771056 -0.18541478 0.044097483 0.06931462 -0.16158518 -0.0017590654 0.08016159 0.27472818
0.14130633 -0.0027472496 0.014255552 -0.10199644 0.008938122 -0.082997456 0.09899091 0.0113522075
-0.0031072474 0.104451984 -0.25537673 -0.15717265 -0.009216009 -0.16809964 0.17466602 -0.015737284
-0.12781595 0.012907504 0.1179362 0.087564304 -0.08880009 -0.064504854 0.033416063 0.21714363
-0.0732378 0.20288263 -0.030044632 -0.04105731 -0.15920995 -0.010364973 -0.20557193 -0.11429384
0.23085383 0.15852185 -0.09014516 0.07136892 -0.07326643 0.05362106 -0.008352062 0.10527018
0.19179901 -0.10458156 0.037347615 -0.13745117 0.23050146 -0.047336113 0.1183644 -0.24130157
-0.11093913 0.03954156 -0.03294426 0.2682752 -0.027259538 -0.07800695 0.03709392 -0.040258415
0.03289777 -0.12574093 -0.12011358 0.19906987 0.022465251 0.016282482 0.18662408 -0.1807749
-0.20658204 -0.19203286 -0.18815058 -0.1516428 -0.021688636 -0.09505057 -0.036739822 0.2070642
-0.0030652746 0.025762124 -0.17166315 0.044187482 0.014686288 -0.016411996 -0.053019203 0.021969793
-0.0293541 0.06511678 -0.45032105 0.033918604 0.045202807 -0.050726555 0.16338305 -0.14768219
-0.081044205 -0.11819783 0.2790036 -0.12689605 0.026813002 -0.1897916 0.27306855 -0.39842474
-0.016328312 -0.014054552 -0.46739814 0.36793348 0.16117953 -0.09108968 0.31365228 0.059523888
-0.21211311 -0.050696194 0.58176297 0.16717881 0.22454767 -0.10262296 0.043168537 0.21348916
-0.18254563 0.078371465 -0.3226204 -0.1820396 0.1658604 0.1814415 -0.0545568 0.231881
-0.1111948 -0.028314594 -0.067999385 0.36106673 0.34093362 -0.1827819 0.16899459 -0.020886451
-0.14005667 0.011158903 -0.022853995 -0.18931434 -0.16933928 0.17915687 0.05281653 0.17635898
0.27734807 -0.11504361 0.111305505 -0.23928641 -0.1125273 0.3733406 0.02262843 -0.18001994
0.11129378 -0.10583585 -0.10280048 0.15517314 -0.22012258 0.22498852 -0.04190205 0.291156
0.0067441915 0.08013484 0.23475215 -0.05096369 -0.11984643 0.15739211 0.22559376 -0.0034176507
-0.003982521 -0.11022317 -0.10814887 0.011093473 0.53007317 -0.13487388 -0.017230267 0.13368204
-0.33742842 -0.013749375 -0.1565588 0.26135957 0.080628075 0.112003125 -0.19072841 0.1764841

rnn.bias_ih_l0 f4 [180]
00000000: 18de f33b e778 93bd f29c 97bc 130b 243c
00000010: d48e 1cbc 677b 953d 9a70 213e 7b02 d7bd
00000020: f52e 2b3e 24e1 c43d fd3e 753c 0757 3ebe
00000030: 4cae 23bd 2137 bd3d daec 6c3d b023 de3d
00000040: 8425 0d3e f06c 493e 4824 333e 1a04 56bc
00000050: 24e5 e63d b787 ed3d 7ea6 96bd ccce 703d
00000060: 8287 a63d a512 04be a753 e03b 2483 afbd
00000070: 6dbc 343e aa4b 7f3e 74bd f63d 9f84 383e
00000080: 718f de3d c771 dc3d 0cf9 29bc 1a56 1b3e
00000090: cfa7 7cbd aaf7 293d a5f8 4c3e 5e6f f13d
000000a0: 8378 2d3c bd71 a13d c939 353e 2d69 a03d
000000b0: 6829 a23e 76f8 f93d cc77 ba3e c758 093e
000000c0: fcf4 e33d 4a28 b8bc ed37 d93c 3216 523e
000000d0: c3fd c23b 102e 173d 36df cb3d 33f1 87bd
000000e0: 7c98 2a3e bd3f 963d 7e82 873d acc6 a5bd
000000f0: 6209 233e 7cab f9be 83b2 25bc e40e c0bd
00000100: f1e1 7a3d 9ef8 bbbe 7b42 9c3c efb6 0bbc
00000110: 81ac 00be e1cb fa3d 318e 2cbe 04f7 2abe
00000120: d8f1 f33d 2c10 25be fd6a 233e 82c8 3abd
00000130: c95a d43d 4643 9cbe 0eac 7ebd f9b1 76be
00000140: 0ea0 86bd 4ada bbbd 7916 433c abe7 82bd
00000150: ba5d 11bc a772 b0be d393 17b9 39b3 20be
00000160: a473 e13c 09c5 f9bd bca6 bbbd 626f 89be
00000170: 4023 c93d 36b7 83be 6bcd 36be f439 6cbd
00000180: 4113 0cbb f737 3cbe f3dc 183e 50fe 56bd
00000190: c37b a6be a1d3 96be fcdc 9dbe abb8 1dbe
000001a0: d8d2 f6bc 72a6 58bd 9204 f03c 5140 bcbd
000001b0: 03c1 043e 4a43 29be c3c2 d3be 719f 84be
000001c0: ee7c 12be f092 f3be 4b1f 83be 097d 5bbe
000001d0: fdf6 cdbe 65f0 9b3d 3d05 d93c 9b3f 75be
000001e0: e27f 383e 07d4 113e 2ee7 443e c3f0 6b3e
000001f0: 954b b0bd 91d9 49be bdb0 893d a922 393d
00000200: e50f 6e3c e2bd 123e bf83 193d 0b10 75bc
00000210: 1b19 dabd 4184 f9bd 85a7 aebc a588 77be
00000220: ff6b 2dbd baf2 fd3d f7a6 483e 24a8 34be
00000230: b05d 023e 9126 b03d 9472 2fbd f437 763e
00000240: 0918 b03d 8ed7 523d f9f5 593c 87e4 703d
00000250: b893 4f3e ab85 a23e db27 163e 0bd8 4dbd
00000260: 561a 7fbe d468 2b3e 2d34 9cbd ad66 37be
00000270: 9afb 333e cc35 c23c e868 2dbe 64ba d3bc
00000280: eaa5 653e 84fe 013a 3d38 c03e a33f 2e3e
00000290: b74d 963e f54b 37be 0964 a9be fa07 8abc
000002a0: 6d1d 83be a83f ea3d 2f79 fcbc 4d0f ac3d
000002b0: 2630 ffbc c6c1 b4bd 4b7e a0bd 56de 6b3e
000002c0: a975 54bc f242 2bbe 3b1f 093d 5d64 073d
0.007442247 -0.07200795 -0.018507455 0.010012406 -0.009555537 0.07298928 0.1576561 -0.1049852
0.16717131 0.09613255 0.014968631 -0.18587886 -0.039961144 0.09239031 0.057843067 0.108466506
0.13783842 0.19670463 0.17494309 -0.013062501 0.11274174 0.11598151 -0.073559746 0.058790967
0.08131315 -0.12897737 0.0068459096 -0.08569935 0.17650004 0.24931207 0.12047854 0.18019341
0.10867203 0.10763889 -0.010374319 0.15169564 -0.061683472 0.041495956 0.20016725 0.1178882
0.010587814 0.07883022 0.17697825 0.07832561 0.31672215 0.12205593 0.36419523 0.13412772
0.111307114 -0.022480149 0.026515925 0.2051628 0.005950661 0.036909163 0.099546835 -0.06637802
0.1665973 0.07336376 0.06616686 -0.08094534 0.15921548 -0.48763645 -0.010113361 -0.0937784
0.06125063 -0.36713117 0.01907467 -0.0085275015 -0.12565805 0.12245918 -0.16851117 -0.16695791
0.119113624 -0.1611945 0.15958782 -0.045601375 0.103688784 -0.30520076 -0.062175803 -0.24091329
-0.06573497 -0.09172495 0.011907213 -0.063918434 -0.008872444 -0.34462473 -0.00014455551 -0.15693368
0.027520962 -0.121957846 -0.091626614 -0.2684279 0.098211765 -0.25725716 -0.17851798 -0.057672456
-0.002137378 -0.18380724 0.14928035 -0.052488625 -0.32516298 -0.29458335 -0.3083266 -0.15402476
-0.030129835 -0.05289311 0.029299054 -0.09191955 0.12964253 -0.16529575 -0.4135953 -0.25902894
-0.1430547 -0.47573042 -0.25609812 -0.21434416 -0.402275 0.07614211 0.026491756 -0.23950045
0.18017533 0.14241038 0.19228813 0.23041062 -0.08608166 -0.19711901 0.06723163 0.04519907
0.014530157 0.14330247 0.03747916 -0.014957438 -0.1064932 -0.121834286 -0.021320114 -0.2417322
-0.04233932 0.12399812 0.19594942 -0.17642266 0.12731051 0.08601106 -0.04283388 0.24044782
0.08598334 0.0514751 0.013303273 0.05881169 0.20271194 0.31742606 0.14663641 -0.050254863
-0.2491239 0.16739208 -0.07627139 -0.17910261 0.17576447 0.023707293 -0.1693455 -0.025845714
0.22426572 0.0004958885 0.37542906 0.17016463 0.29356167 -0.17900069 -0.33084133 -0.016849507
-0.25608388 0.11437923 -0.030819504 0.08401356 -0.031150889 -0.08826022 -0.078365885 0.23034033
-0.0129675055 -0.16724756 0.03347705 0.0330547

rnn.bias_hh_l0 f4 [180]
00000000: ba1b 053e 390a f63c 06b1 ae3d afbb 5e3d
00000010: 33c5 c0bd f467 c73c 895c 343e 8be9 7dbd
00000020: aa10 4b3c 28ef a5bd 05a5 7d3d a147 26be
00000030: 8f22 b5bc db21 693d 2308 613d c396 dfbc
00000040: 32c1 2a3d 9420 303e 804f 2f3e 515a 753d
00000050: b8c2 463d ee2b f1bc a089 143e 8494 1b3e
00000060: e5fd 263e f310 4bbd 46af 7bba d550 50bd
00000070: 5727 db3d 76d5 8e3e 3e4f 603e 1a36 513d
00000080: 78e0 ea3d 4379 fe3d 6b19 2e3c 24ec 1d3d
00000090: f037 a03d ef40 adbd a81e 513e 88a6 ea3c
000000a0: 3805 623d 76bf 2e3e 46fb 4e3e f1f8 853d
000000b0: f22d c33e b56a b13d c840 3b3e 5739 1b3e
000000c0: 0c3d 013d ad08 f8bd 9837 9b3d 5320 593e
000000d0: 6ef5 91bd 8eff 9d3d c36c 0e3e 80b3 37bd
000000e0: 99c5 ed3d 81b4 09bd 99b8 5c3d 4dac 063e
000000f0: 8796 353e 419f ecbe 61bb 74be aa6d 16bb
00000100: b7c4 133d 2023 4bbe 6c85 273d b642 c33c
00000110: 125d 93be 5888 113e 845a 25be fb51 4fbe
00000120: adef dd3d 690a 26be 3424 343e 8d2d 74be
00000130: 24f2 b1bd 075f b9be aa31 2dbe 98d0 7cbe
00000140: dd4a cbbd bafc 7cbb 1320 9b3d d533 a8bd
00000150: 677b 18bd 7304 20be edcc c93c f6b5 d1bd
00000160: 1d5c 023d 17f8 93bd 6003 60be d68b b0be
00000170: 0d03 4b3e 8449 3bbe 3893 a9bd b403 87bd
00000180: 115a b1bc 3181 8abe cfab 2a3e 9e8c 03be
00000190: bba7 90be 09f7 a2be b07c 70be 9396 9dbe
000001a0: 54d2 3bbe 6ca9 86bc 28fc 53bd c8ef b43d
000001b0: 30a2 8dbc 029f 50be 48a8 9fbe 37d1 34be
000001c0: f90f 30bd debd 06bf e935 2ebd f0b0 00be
000001d0: af86 f4be f0d6 2c3e 3160 073d ab03 48be
000001e0: 2170 163e d8cd b1bc 93c6 e13c 0c35 093e
000001f0: c8cd 91bc d9cd 33be 3a41 973c 562c 533e
00000200: 131b 433e df84 7e3d 3b00 653c 7d73 abbc
00000210: 00ca babd 1bea 72be 8956 8c3d df70 e4bd
00000220: 526e 5bbe c05c a5bd 2d28 6a3e 5f51 b6bd
00000230: 7d64 753d 6d37 8c3d a567 3ebe 3fee 9d3d
00000240: 1354 743d e1ab 13be 3d8e 1bbd 2bb3 23be
00000250: 9fb2 fc3d 19d0 a03e 5d0f ac3d 9a3a 0cbe
00000260: 3616 6abe a61f a5bc e432 053e b52f 36bd
00000270: 0f14 493e 161d bebc 7004 59be 7eb1 103d
00000280: 1c72 853e 630e 0dbe 2524 ba3e 120f 283e
00000290: 6e87 993e d745 4a3d e791 c4be a720 ab3c
000002a0: 727c 72be 9b2a 493d 89e0 213e c1f1 f1bc
000002b0: cc7f 4b3d 4166 1a3d 1282 a23c 49a6 2e3d
000002c0: 82d8 f6bd f481 12be 75b2 ba3d be89 9dbc
0.12998858 0.030034171 0.08529858 0.054378208 -0.09412613 0.02434156 0.17613424 -0.061990302
0.01239411 -0.08102256 0.061924953 -0.16238262 -0.022111205 0.056917053 0.0549394 -0.027293568
0.04168815 0.17199928 0.1712017 0.059900586 0.048525542 -0.029439893 0.14505625 0.15193373
0.1630779 -0.04957671 -0.0009601008 -0.050858337 0.10700863 0.27897233 0.21905228 0.051076986
0.11468595 0.124254726 0.010626177 0.03855528 0.07823169 -0.08459651 0.2042185 0.028643861
0.05518076 0.17065224 0.2021304 0.065416224 0.3812099 0.08662931 0.18286431 0.15158592
0.03155236 -0.1211103 0.07578963 0.21203737 -0.0712689 0.07714759 0.13908677 -0.04484892
0.116099544 -0.033619408 0.053886984 0.13151665 0.17733203 -0.4621525 -0.23899604 -0.0022953548
0.036076274 -0.19837618 0.040898725 0.023835521 -0.28781945 0.14212167 -0.1614781 -0.20246117
0.1083673 -0.16214909 0.17591935 -0.23845501 -0.08688763 -0.36205313 -0.16913477 -0.24688947
-0.099263884 -0.0038602785 0.07574477 -0.08213011 -0.03722706 -0.15626697 0.024633849 -0.102397844
0.031826127 -0.07225054 -0.21876287 -0.34481686 0.19825383 -0.18289763 -0.08280033 -0.06592503
-0.021649392 -0.2705169 0.16667102 -0.1284661 -0.28252968 -0.31829098 -0.23485065 -0.30778942
-0.18341953 -0.016438209 -0.051754147 0.08834797 -0.017289251 -0.20373157 -0.31183076 -0.17657934
-0.042983983 -0.52633464 -0.04253188 -0.12567496 -0.47759005 0.16878867 0.03305072 -0.19532649
0.14691211 -0.0217046 0.027560508 0.13399142 -0.01779832 -0.17558993 0.01846372 0.20622382
0.19053297 0.062138434 0.013977106 -0.020929093 -0.0912056 -0.23722117 0.06852443 -0.11154341
-0.21428803 -0.08074331 0.22866888 -0.08902239 0.059910286 0.06846509 -0.18594225 0.077114575
0.059650492 -0.14421035 -0.037977446 -0.15986316 0.12338757 0.31408766 0.08401368 -0.1369423
-0.22860035 -0.020156693 0.13007694 -0.04447909 0.19636558 -0.023207229 -0.21193099 0.03532552
0.2606362 -0.1377502 0.363557 0.16411999 0.29986137 0.04938301 -0.38392565 0.020889593
-0.23680285 0.049112897 0.1580831 -0.029534223 0.049682423 0.037695173 0.019837413 0.04263905
-0.12053014 -0.14307386 0.09116069 -0.01923072

rnn.weight_ih_l0_reverse f4 [180, 63]
00000000: ca2b ac3d 2626 a33a 0067 c5be 8b5d de3d
00000010: a963 193e f1f2 843c 731b 1e3e 564a 0f3e
00000020: 3191 323d e743 d63c 005d 503d 2371 40be
00000030: 8eb9 a73c 1fb3 4abe 94b5 8f3d b51d f3bd
00000040: 0695 02bd 0dc0 ad3b 2d21 97be 897f 63be
00000050: 93b1 0dbd d711 4a3d 7c42 d43d e6a6 2a3e
00000060: 77a8 33be 20b5 6a3d 57fd 033e 2e60 6e3d
00000070: a4ec 8cbc 1a5c 2fbe 38cd acbc 5e6f 2e3e
00000080: 22ca 5abd e52c 193d 3787 9f3d 47fe b4bd
00000090: 832c a03c 13b3 53bc 535a 00bd b3ee 4e3d
000000a0: 2715 d2bd 1279 a9be 3aa7 afbd 8bb3 423e
000000b0: 9adf c63b 1b62 a93d fc34 a5bd eace 16be
000000c0: 6490 8a3d 2d26 49be 0000 0abd f175 85bd
000000d0: 9567 043e 4791 09be 8711 5cbd c4ff 82bd
000000e0: f370 e8bb 3e5a 2fbe 0e44 133e 0533 04bd
000000f0: 2058 17be f5c2 d5bd 4e9a 6fbd 0288 32be
00000100: 4e03 4d3e ae5a e7bd b891 403d 3003 40be
00000110: b3f7 1ebe 99bb 12bd b826 06bc 30ba c3bb
00000120: 1fc1 70be 4d9a 003e 6cc7 62bd a1d0 cd3d
00000130: fac8 263e 3a53 dabc d9a5 6f3d 09f2 693d
00000140: 065b e3ba 7942 8e3d 2b27 90bd 3dd4 943d
00000150: c91a 06be 27da 1f3e 121e 203d 808a ac3d
00000160: aa94 d43d 61f3 cbbd f176 023d 353a d8be
00000170: d220 b9bb 460f 49be 9aa5 db3c b1d0 d43d
00000180: 4ed9 87bd 439e 353d aa2d 96bd f8a6 f93d
00000190: 974f b63e a15b d13e 3778 5e3d 8073 a53d
000001a0: 7425 f93d ec81 7d3d 027e ee3d d2a0 c93d
000001b0: 3a3c f53d 9907 db3d 5034 813d 6abb 533b
000001c0: f65a 39be 6810 c5bb 6039 c3bd ff96 9ebd
000001d0: b1a4 843d a8aa 113d 2082 0ebe 177f 7f3d
000001e0: 1b03 6ebd be8d 01be 06fd ed3c b24e 0a3d
000001f0: d42b be3d 768a 74bc ae14 c63c 9353 593c
00000200: 11d2 b73d c33b 1a3d 7f7f 2bbd 722e 9e3e
00000210: 669f 273d 0150 273e b6aa 223e fcbf dabc
00000220: 9f42 8d3d 3025 86be 9eca 69bd e526 c63d
00000230: c17f ee3c f2a3 68bc 677e 3cbe 735a f6bc
00000240: 50c9 b9bd a593 9e3c 2b5b 90bc 079c 9dbd
00000250: c550 ab3d 4dbf b3bd 9c00 8c3e c8f5 d7bd
00000260: 9579 f63d 4529 a6bd ae57 0fbe 0437 a4bd
00000270: 3eec f03d 887f aebd 58e4 debb bbd1 4dbe
00000280: 5dc9 29be dc85 e3bb 7ee7 123d 24f7 0dbe
00000290: 69d0 e0bd 31b8 8f3e b7ff 84bc 174e 4a3e
000002a0: 3f60 71be 6ff3 9cbe 9025 f9bd 2f27 fdbd
000002b0: 91b0 6c3e 500a cbbe 927c 7c3d 7ab4 0abc
000002c0: e4bd a33d eeec 0ebd 338d b93d 2a5c 4bbd
000002d0: 84a1 0ebc 828d cebd 8e10 e0bd a24d bd3c
000002e0: 16bc dd3d 8a5c 593e e6ec 6f3d a44f 663c
000002f0: c7d5 4b3c dc95 cfbd de3c 56be a7d6 68be
00000300: 612b c6bd f8e9 3bbe 6964 b73c 726d 933d
00000310: 3cff a33d 2baa 303d 918d d5be 6343 b1bd
00000320: f667 50bc 62c4 2ebe dbbb 33bc 6f49 5dbd
00000330: b7aa 5cbe 8d79 59be 9739 6c3e 0915 2cbe
00000340: 34cc 203d 64f1 4cbe ab25 c43d 5e73 333d
00000350: 2ee7 d6bc 34b5 163e 284c c53d 6837 d1bc
00000360: 859f 06bd 36dc 4cbe 0c33 49bc cda1 64bd
00000370: 8f8b 19bc 924f d3bd 4409 9c3e cfb6 50be
00000380: 0116 63bb 4f52 1d3e d06c 22be 5439 ddbc
00000390: 14c3 89be e739 7ebe bc29 1bbe 1f3e ee3d
000003a0: 0cf0 eb3d e144 30be 9894 60be d610 5c3e
000003b0: a234 1bbe afeb 4c3d cad5 b03d ee1a 933c
000003c0: bee9 79bd 5db6 3ebd f5c1 3abe f9e3 0c3e
000003d0: c4cf 1fbe 398f efbd f2e7 c33d 1d59 3b3d
000003e0: c667 f0be 3bab b03d 02c3 ca3e b5cb 183e
000003f0: 217e d4bd f19f d93d a4d6 b13e cd0a 5dbd
0.084067896 0.0012447282 -0.38555145 0.10857686 0.14979424 0.016229125 0.15440159 0.139932
0.043595497 0.026155425 0.05086994 -0.18793158 0.020474222 -0.19794892 0.07017055 -0.118709005
-0.0318804 0.0053024353 -0.295175 -0.2221662 -0.034593176 0.04933342 0.103642434 0.16665229
-0.17544733 0.05730164 0.1288961 0.058197193 -0.017202683 -0.17124978 -0.02109395 0.1703467
-0.053415425 0.03739633 0.07789462 -0.08837562 0.019552475 -0.012921113 -0.03133614 0.05052061
-0.10257941 -0.33100182 -0.08576818 0.19013803 0.006069136 0.08270665 -0.080667466 -0.14727369
0.067658216 -0.19643469 -0.033691406 -0.06516636 0.12930138 -0.13434325 -0.053727653 -0.0639644
-0.0070935427 -0.17124268 0.1438143 -0.03227522 -0.14779711 -0.10437576 -0.058496766 -0.17434695
0.20020792 -0.11296593 0.04701397 -0.18751216 -0.15524177 -0.03582344 -0.008187942 -0.005973123
-0.2351117 0.12558861 -0.055365965 0.100495584 0.16287604 -0.026651014 0.058507774 0.05711559
-0.0017345853 0.069462724 -0.07038721 0.07267044 -0.13096155 0.15610562 0.039091177 0.08424854
0.10379918 -0.0995853 0.031851713 -0.42231908 -0.0056496644 -0.19634733 0.026812363 0.10391367
-0.066332445 0.044340383 -0.073329285 0.1219005 0.35607597 0.4089022 0.054313865 0.080786705
0.12165347 0.06189148 0.11645128 0.09845127 0.11974378 0.106948085 0.06308806 0.0032307752
-0.18101105 -0.0060139187 -0.09532428 -0.07743644 0.06476725 0.03556314 -0.13916826 0.06237706
-0.05810843 -0.12651727 0.029051315 0.033766456 0.09285703 -0.01492559 0.024179783 0.013264555
0.08975614 0.03765465 -0.041869637 0.3089481 0.0409235 0.16339113 0.15885434 -0.026702873
0.068974726 -0.26200247 -0.057077996 0.09675387 0.029113652 -0.014199244 -0.18407594 -0.030072426
-0.090716004 0.019357512 -0.017621597 -0.076957755 0.08365015 -0.08776722 0.27344215 -0.10544926
0.12034909 -0.0811334 -0.13998291 -0.08018306 0.117638096 -0.085204184 -0.006802123 -0.20099537
-0.1658072 -0.0069434475 0.0358653 -0.13863808 -0.10977251 0.28070214 -0.016235216 0.19756351
-0.23571871 -0.30654475 -0.121653676 -0.12360989 0.2311423 -0.39656305 0.061642237 -0.0084658805
0.07995203 -0.034893923 0.09060135 -0.04964844 -0.0087055005 -0.10085584 -0.109406576 0.023108307
0.1082689 0.21226707 0.058575533 0.014057074 0.012441105 -0.10136005 -0.20921656 -0.22738133
-0.096762426 -0.18350971 0.022386746 0.071986094 0.080076665 0.043131035 -0.4170957 -0.08655431
-0.012720099 -0.17067102 -0.010970081 -0.05402511 -0.21549498 -0.21237774 0.23068844 -0.168049
0.039257243 -0.20013958 0.09577497 0.043811195 -0.026233282 0.14717561 0.09633666 -0.025539115
-0.032866973 -0.20005879 -0.012280237 -0.055818368 -0.009371652 -0.10317911 0.3047582 -0.20382236
-0.0034650567 0.1536343 -0.15861821 -0.027004875 -0.26906645 -0.24826775 -0.15152639 0.116329424
0.11520395 -0.17213775 -0.21931684 0.21490797 -0.15156797 0.050029453 0.08634527 0.017957177
-0.06101393 -0.046560634 -0.18238051 0.1375884 -0.156066 -0.116972394 0.095657244 0.045739282
-0.46954173 0.086264096 0.39601904 0.14921458 -0.1037562 0.106262095 0.3473407 -0.05396538

rnn.weight_hh_l0_reverse f4 [180, 60]
00000000: 4421 47be c1ec 84be 1711 5d3e 3d64 993e
00000010: 0f50 263f 81e6 e4bc fcf2 163e 99b9 fcbc
00000020: eb4a 18bc aded d6bd 27bc 7fbb 8222 86be
00000030: 1550 1d3e 3b0d 6e3c 0957 80be b188 bdbe
00000040: 1261 20bd 24f8 33bd d219 023e 840b 19bd
00000050: 9cd7 37bb 964e 413e 8ac2 c63c 15b4 6d3c
00000060: 4c23 b73d be53 03be 66a0 26bd ba90 463e
00000070: b8fc 00bd 09f5 6f3e bbc9 4f3d c85f ad3d
00000080: 536a 3b3d 9ade 313e ccbd d1bd c35c b33d
00000090: 121e 11be fb57 50bd a2ed 09be d6e4 c23a
000000a0: 75f8 803d 0fd4 99be 2fac 1cbb 4589 43be
000000b0: 4102 12bd 7b9b 733e 24bb e0bd b202 fb3d
000000c0: d757 8cbe f875 1b3c fecd d03d 6dc5 57bd
000000d0: 9855 e53b 3ab8 91be 9e93 2f3d 9d83 b63d
000000e0: a917 2e3d b146 f4bc 84f4 833d 4079 ac3d
000000f0: 27cf f8bd ca6a 913d 3f11 903e adc5 713e
00000100: aa7b 3e3e cce5 093d a0cc 1cbe 9bbc a13d
00000110: 811a aebe 3dde 6fbe 4cd4 4ebd dac6 0b3e
00000120: 4297 21be 4da0 893d eba5 eabd 6629 41ba
00000130: 512d fdbc 1e27 89be d954 eabd 36b5 7cbe
00000140: 23d2 183e 3bdc 2bbe d3ad b63d af02 8ebe
00000150: cc08 2cbe 93b9 163e 0ded c5bd d3e1 81be
00000160: e6b1 d0bd a6a5 97be 7cce 0dbe b75c 38be
00000170: 0e9f 87bd e069 253e d7b4 653d ec06 66be
00000180: 7578 5ebd fdef d1bc aae2 e03c 3b4e 6d3e
00000190: 306f a9be 4dc9 c4bd 609b 8abd 64dd 4f3b
000001a0: 99f6 41bc 99d7 273d 1cf5 873c a095 d4bd
000001b0: 0dbc a5bd 37be 39be 3f11 bebc 9a63 a33e
000001c0: a679 d33c 3935 b8bd 1524 133c dc72 0d3e
000001d0: a242 a33d 56d2 eabd 1885 cf3d 2802 fcbc
000001e0: 6379 c03e e773 8bbd b422 89be 752a 49be
000001f0: 8e05 6f38 4ec5 83be 2905 a8bd 12bf 48be
00000200: 2d10 e93d 4507 16bd a20b 69be 6192 11bd
00000210: 1727 b1be 83c9 6a3e 5f48 813e 17ce 713e
00000220: 6d11 073c 91c3 0fba 203c 153e ed13 a43d
00000230: 154d 2d3e d30f b73e 133c 183c 2445 4a3d
00000240: e644 673e a9d1 473e cf3d 303e 7fd6 77bd
00000250: 351e 49be 5fb2 a83d e209 443e 4458 d53d
00000260: b46a a33d d269 1d3e 15b0 d6bd 30b5 aebd
00000270: c754 193e 504f e4bd 210a e93c 5c0c 9bbd
00000280: a3c5 a83d 0cfd fabd e5c5 6fbe 0406 093d
00000290: 0193 8ebd 4a27 8d3c bb91 6b3d 0d66 1a3e
000002a0: baec 773e d0ed 8abe 255b debc b917 34bc
000002b0: 8f95 8fbc 704d 5e3c 2820 0c3d 81bc 983d
000002c0: 19ed 91be 302c 8ebc 58a1 dcbd 6434 2abd
000002d0: e63b 04be 69fc ad3d 1802 44be e914 3cbe
000002e0: 4973 453e 8f1f a5bc b06b fa3c b10b 9dbd
000002f0: 08d0 9a3e 566c 8cbd d504 df3d cc5d 6ebe
00000300: 6ae3 1dbe 4ee2 263e 93de bf3d a4a1 8dbd
00000310: 3bd1 113e f6ee 5d3d f4a6 b23e 0b9d aa3d
00000320: 247a 76bc be62 823d aa54 70be 38db 943d
00000330: 65ed 973c 2300 b03d 7dd0 a63e 6bb7 93be
00000340: 8cf7 b13d e353 863d f649 b63d fc66 af3d
00000350: eb93 8b3e 809a 313d 2a4f 9ebe b48d f83e
00000360: 3e50 333e 5f6a cfba 905b 703e 2365 0fbe
00000370: 4627 a7bc 5be5 54be f6c2 61be a300 063e
00000380: ffdc a63d 0d3c 173d 24d4 23be 5f7c 9bbe
00000390: 30c9 8c3e 5422 cabd 8e81 833b 8084 de3d
000003a0: 25a0 09be 6c08 fb3d 5178 2abe 0e61 37bc
000003b0: 7a4f 7e3d c885 823e 34f1 403e c727 183e
000003c0: f5ad 11be 5bdc 1cbe c7c6 363e 1b00 d63d
000003d0: 8d25 703e 1635 1c3c bf8a 143e 668c 3ebe
000003e0: c168 20bd ff6d 18be 4c3a ea3d 7c1e a6be
000003f0: aa52 26be 4fb6 8e3e abbc cabd df19 98be
-0.19446284 -0.2596188 0.2158855 0.29959288 0.6496591 -0.027941944 0.14741129 -0.030850219
-0.009295206 -0.10494552 -0.003902206 -0.26198202 0.1536258 0.014529522 -0.25066403 -0.3701835
-0.039155073 -0.043937817 0.12705162 -0.037364498 -0.0028052097 0.18877634 0.024262685 0.014508267
0.08942279 -0.12824914 -0.04068031 0.19391146 -0.03149101 0.23433317 0.050729495 0.084655344
0.045755696 0.17370072 -0.10241279 0.08757927 -0.14171627 -0.050865155 -0.13469556 0.0014869224
0.062973894 -0.300446 -0.002390634 -0.19095333 -0.03564668 0.2378978 -0.10973194 0.122563735
-0.27410766 0.009488575 0.1019554 -0.052678514 0.006998729 -0.28460866 0.042865388 0.08911822
0.042503033 -0.029818865 0.06443122 0.08421564 -0.12148886 0.071004465 0.28138158 0.23610564
0.18601862 0.033666417 -0.15312433 0.07897302 -0.34004596 -0.23424621 -0.05049543 0.13650075
-0.15780357 0.06720028 -0.114574276 -0.00073685346 -0.030905398 -0.26787657 -0.11441965 -0.24678501
0.14923911 -0.1678323 0.08919873 -0.27736422 -0.1680023 0.14719228 -0.096643545 -0.25367603
-0.101901814 -0.29618567 -0.13848299 -0.18004118 -0.06622134 0.1615367 0.056080665 -0.22463578
-0.054314096 -0.02562713 0.027451832 0.23174374 -0.33092642 -0.096087076 -0.06767917 0.0031717652
-0.011838579 0.040977094 0.01659637 -0.10380101 -0.080925085 -0.18138967 -0.023201583 0.31911927
0.025814842 -0.089945264 0.008980771 0.13813347 0.079716936 -0.114659 0.101328075 -0.030762747
0.3759261 -0.06809216 -0.2678429 -0.19645102 5.6987214e-05 -0.2573647 -0.08204109 -0.19604138
0.113800384 -0.036628027 -0.22758344 -0.03553999 -0.34600136 0.22928433 0.25250527 0.23613773
0.008243901 -0.0005484159 0.14573717 0.08011613 0.16923936 0.3575426 0.009291667 0.049382344
0.22584876 0.19513573 0.17211078 -0.060507294 -0.1964043 0.082371466 0.19144395 0.10417226
0.079793364 0.15372398 -0.10482804 -0.085306525 0.14973746 -0.1114794 0.028447213 -0.07570717
0.08240821 -0.12255296 -0.23415335 0.033453003 -0.069616325 0.017230649 0.057512026 0.15077992
0.24211398 -0.27134562 -0.02714307 -0.010991984 -0.01752737 0.013568267 0.034210354 0.07457829
-0.28501204 -0.017355055 -0.107729614 -0.04155387 -0.12913474 0.08495409 -0.19141424 -0.18367352
0.19282259 -0.02015665 0.030568928 -0.076682456 0.3023684 -0.06856601 0.108895935 -0.23277968
-0.15418783 0.16297266 0.093686245 -0.06915596 0.14239971 0.05418297 0.34893 0.08330735
-0.015043769 0.0636649 -0.23469797 0.07268375 0.018545816 0.08593776 0.3258094 -0.28850874
0.08689794 0.06558969 0.08900826 0.085645646 0.2726129 0.043360233 -0.30919772 0.4854561
0.17511079 -0.0015824548 0.23472428 -0.14003424 -0.02040447 -0.20790617 -0.22047028 0.1308618
0.081476204 0.036922503 -0.15998894 -0.30368325 0.27497244 -0.09869829 0.004013247 0.10865116
-0.13439997 0.12257466 -0.1664746 -0.011192573 0.062087514 0.25492692 0.18842012 0.14858924
-0.14226516 -0.15318434 0.17849265 0.10449239 0.23451824 0.009534141 0.14506052 -0.18608245
-0.0391624 -0.1488571 0.114369005 -0.32445133 -0.16242471 0.27873465 -0.09899267 -0.29707238

rnn.bias_ih_l0_reverse f4 [180]
00000000: 5d9a fb3b 4019 4b3e 5790 783c 1d9f f4bd
00000010: c48e 5c3e 25a7 853d 5f9d 8fbc 12d9 4e3d
00000020: 3641 593b 45d6 e4bb b2eb e3bc a55c f6bd
00000030: f351 f43d 81bc 38bd 64a0 25bc 2c79 063e
00000040: 7f60 0bbc 46f4 c1bd 38f7 63bd e3a5 263e
00000050: a88f 2ebd f435 54bd 1987 5d3e d476 f63d
00000060: c334 793e 5e15 343e bedc c2bd be11 fe3c
00000070: 9be5 813d 9810 cebc 5d93 043e 20bf d83d
00000080: 9732 0f3e 9944 5cbe d2d7 15bd b891 9e3d
00000090: 60a6 e5bb 0d2e 523e 51bc d8bc 139f ea3d
000000a0: 8d21 093d 5474 8e3c 0213 883d 907c 163e
000000b0: 6512 933e 2ca3 42be ed2c 873d a58c 843d
000000c0: 768b 023d e853 863e b316 b2bb b9a7 ba3d
000000d0: 9917 a5bd b944 363e 23a4 edbd 3c4c d2bc
000000e0: 6b1f 783e 8245 353d 29de 253e 07fe 303d
000000f0: 2589 c7bd 93f2 a6bd 8b10 b2be 1c8a 8ebc
00000100: cc9b adbe 7dd5 6fbe f9eb 58be 8aa1 5dbe
00000110: 94f8 5dbe 85ec cfbb c814 fbbd 7cf5 c3be
00000120: 12be a2be 89fb 213d a36f 04bf 83a1 eabd
00000130: 849e 40be 9ce3 083d d7b4 49be fe55 8fba
00000140: 85cb 1fbe b178 b8bd 74e4 53be 1ddb 8a3c
00000150: a93f 18bf 4e6b d8be 5934 eebe 3765 c6bd
00000160: a0a0 c5bc b367 213d a4cc 5dbe 9bdf 06be
00000170: 0e63 0cbe 9dbd 0bbd 29c5 8dbd c093 0dbe
00000180: 269d a3be 2156 c03c 68b5 aabe 5000 8dbd
00000190: 6e39 05be c191 72bd 167c 943c 7512 3dbc
000001a0: 5ddc c6be b4f7 00be 9e43 26be d03b a5bd
000001b0: 9ccb d7bd 7f6d 8abe b3d3 28be aeaa 86be
000001c0: b3e8 8d3c c641 05be 7bcd a0be 5cff 0dbf
000001d0: 8a2e 8dbd cd2e 88be 0cab c6be aaf2 2abe
000001e0: 3e45 233e aab0 453e 0525 bebb cce4 f33a
000001f0: 1fbd 55bb 9a66 5a3d 3ead 3bbe dbcf e83d
00000200: b048 ef3a 8d9f 063e 87c2 9fbc a00e d6bd
00000210: 867a 18be 5e03 4c3e dc70 89bd 6bdf 233e
00000220: df76 db3b 58ce b0bd 065c 083e d4f2 4b3e
00000230: 9a60 013d 8b09 2c3e 3347 c83d cbbe 513e
00000240: cf74 0fbd 2178 df3d 0117 87bd b519 103e
00000250: 3511 d73d dfa5 0f3d f50f 193e f719 063e
00000260: 98a0 773c 9e35 09be 697a 2d3e 803e f43c
00000270: 7566 c5bd 55b2 3bbe 10de ef3d fb17 943d
00000280: e044 0dbe 62cf b63d e8c0 2ebd e294 113d
00000290: 68d9 37be bc1c 28bd c8bd 813d 2a07 c23d
000002a0: b6c1 50bd 7131 3fbe 3c28 32be 1054 1f3d
000002b0: 19bc 2b3d 0f5b 513e ff02 ce3c 511e c93b
000002c0: 8e2d 45be ccbe 24be 49b3 9f3d 446d c7bd
0.0076783136 0.19833851 0.015171132 -0.11944411 0.21538836 0.06526021 -0.017531095 0.050499983
0.003315044 -0.0069835507 -0.02782235 -0.12029389 0.11929693 -0.045101646 -0.010109041 0.13132161
-0.008506893 -0.094704196 -0.055655688 0.16274218 -0.04261747 -0.051809266 0.21633567 0.120343834
0.24336533 0.17586276 -0.095147595 0.03101432 0.06342622 -0.025154397 0.1294684 0.10583329
0.13984142 -0.21510543 -0.036582775 0.077426374 -0.007008359 0.2052538 -0.026456984 0.11456122
0.033479262 0.017389454 0.066442505 0.14695954 0.2872497 -0.19007558 0.06600366 0.06472138
0.03187128 0.2623589 -0.005434835 0.09114022 -0.080611415 0.17799653 -0.11603572 -0.025671117
0.24230735 0.04425574 0.16198029 0.04321101 -0.09742955 -0.08151736 -0.34778246 -0.01739984
-0.33907926 -0.23421283 -0.21183766 -0.21643654 -0.21676856 -0.006345334 -0.12259823 -0.38273227
-0.31785637 0.039546523 -0.51732844 -0.11456587 -0.18810469 0.03342019 -0.19697891 -0.0010935662
-0.1560498 -0.09007395 -0.20692617 0.016950184 -0.5947214 -0.42269367 -0.46524313 -0.09687274
-0.024124444 0.039405536 -0.21660095 -0.13171236 -0.13709661 -0.034116376 -0.06922371 -0.13825893
-0.31955832 0.02347857 -0.33341527 -0.06884825 -0.13010189 -0.059221033 0.018125575 -0.011540045
-0.3884 -0.12594491 -0.16236731 -0.08068049 -0.10536882 -0.27036664 -0.16487007 -0.26302093
0.017322874 -0.13013372 -0.3140677 -0.5546777 -0.06893642 -0.26598206 -0.38802373 -0.16694131
0.15944383 0.19305673 -0.005802753 0.0018607615 -0.0032613946 0.053320505 -0.18327805 0.1136777
0.0018255915 0.13146801 -0.019501938 -0.10452008 -0.14890489 0.1992316 -0.06710979 0.16003196
0.00669752 -0.08633107 0.13316354 0.1991685 0.031586267 0.16800515 0.09779205 0.20482938
-0.035023507 0.10911585 -0.065961845 0.14072306 0.10501329 0.035070296 0.14947493 0.13095842
0.015113972 -0.1339936 0.16941227 0.029814959 -0.09638683 -0.18329747 0.11712277 0.072311364
-0.13795805 0.08926274 -0.04266444 0.035542376 -0.17954028 -0.04104303 0.06335026 0.09474023
-0.050965987 -0.18671204 -0.1739816 0.038898528 0.04192743 0.20444892 0.025147913 0.006137647
-0.19255659 -0.16088408 0.07797868 -0.09737638

rnn.bias_hh_l0_reverse f4 [180]
00000000: d78b f33d 19e2 063e f409 2f3d a1bc 61bd
00000010: c3fe 5a3e e83b 873d 00cf c83d 1138 c43d
00000020: 00d1 b23d 191d 25bb 0824 60bd 674a c9bc
00000030: fb7a bb3d 1650 f13d 2fd7 20bd 43b7 113d
00000040: ed77 043d a90c 4fbe fd69 3dbe ff6c 1fbc
00000050: 2298 7dbc 94e3 e1bd 6b87 343e 5123 933d
00000060: c76a 323e bf53 573c adb5 653b 9236 8a3d
00000070: 3bf7 a0bd ac5c 503d 434e 1d3e 193e db3c
00000080: 8808 993d 1e2a 4bbd 8ba0 92bd 58d8 2bbd
00000090: 83cf 81bd 167f 503e 4932 503d ed00 3b3c
000000a0: 9e0e ab3d 1e24 d6bc b753 403e 3c7b af3d
000000b0: faeb 283e 79fc b1bd 9078 8f3c 1230 ef3c
000000c0: e2d8 323e 6d6f 983e d594 a3ba e1f2 0f3e
000000d0: 83ca 403d 815b 123e de58 9abd 57ae 16be
000000e0: bcd0 153e d907 a0bd 7eeb db3d 0f7b ca3c
000000f0: e8a0 bbbd 1d44 d7bd a25f acbe 3a8e 1abe
00000100: b3bf 95be 4e01 c6bd a4f1 2dbe f408 bdbd
00000110: 72fd 6abe e713 65bd f4bf 87be f95f f3be
00000120: 66c2 9abe f10e ccbd 5f3e 00bf e2e3 3cbe
00000130: 7c12 a0be daf7 f53d fe9b 04be 1b46 973c
00000140: 37d8 83be 83ce c4bd 568e 95be 8098 2c3d
00000150: e992 fcbe 5025 8abe ddfa f6be a8ff f5bd
00000160: 77a6 f33d 0c26 38be 379e 68be 3b94 9dbe
00000170: e95d 95be 1f2a bfbd a374 4fbe e507 94bc
00000180: 48e0 b1be c280 2ebe c459 0cbf 3922 9cbd
00000190: 2727 5ebd 065f e3bd e6c2 2dbd 5a2a 17bc
000001a0: 9d75 04bf c922 b8bd 1994 d1bd 81f4 22bd
000001b0: c657 1fbe cb61 52be 3248 98bd 3d94 53be
000001c0: a26e 64bd 8f48 89be d59d a1be 2f2b f9be
000001d0: 8814 90bd d504 fbbd 5af1 d1be c917 90be
000001e0: c2ca 333e 4f41 003e fff1 01be cc28 733d
000001f0: 4b24 e93d 0448 283d 017a f4bd f0c1 fa3d
00000200: 3603 363e b906 6f3e 2b85 e1bd cc0c 45bd
00000210: fddd 0cbe 4a47 d23c 1fda c03d 2893 dfbc
00000220: b467 91bc ec68 a5bd 463a 12bd ba0b 0b3e
00000230: 01e4 543e c1cc 11ba dcd8 abbd f7d8 b7bc
00000240: c1be e13d acd3 c63d 276b b13d 700c 65bd
00000250: b1c5 3abd 9726 803b e83e 193e 26a5 43b9
00000260: a8ea 9f3b 4ff1 063a 0fbe 3d3e bb27 033c
00000270: 126d 963d 86f5 05be b993 6bbd b56e 8a3c
00000280: dcb2 75bd 372e 083d d4da d73b d6a2 063e
00000290: 2ad5 4abe 0bda d1bd 471c f4bd 062f 0c3e
000002a0: 0789 c3bd 8298 5cbe 6dcb 30be 5a42 1b3e
000002b0: e614 393d f10d 273e 2b06 ddbd c95f cebd
000002c0: 8ca6 90bc 337c 2ebe e121 e7bd 56cf 423c
0.11891907 0.13172187 0.0427341 -0.05511153 0.21386246 0.06603223 0.09805107 0.09581006
0.0873127 -0.0025194346 -0.054721862 -0.02457161 0.09154316 0.11782853 -0.039267715 0.035575163
0.032340933 -0.20219673 -0.18497463 -0.009730577 -0.015478166 -0.11029735 0.17629783 0.071844704
0.17423545 0.013142525 0.0035050914 0.0674869 -0.078596555 0.05086963 0.15361886 0.026763009
0.0747233 -0.049600713 -0.071595274 -0.04195437 -0.06338408 0.2036098 0.050829206 0.011413795
0.083523974 -0.026140269 0.18781935 0.08568427 0.16496268 -0.086907335 0.017513543 0.029197726
0.17465547 0.2977251 -0.0012480268 0.14057495 0.04706813 0.14292718 -0.07536481 -0.14714943
0.14630407 -0.07813997 0.10738276 0.024716882 -0.0916155 -0.105110385 -0.33666712 -0.15093318
-0.29247817 -0.096682176 -0.1698671 -0.09230223 -0.22948244 -0.055927183 -0.26513636 -0.4753416
-0.3022644 -0.09963787 -0.5009517 -0.18446305 -0.31264102 0.120101646 -0.12950131 0.018466046
-0.25750896 -0.096097015 -0.29210156 0.042137623 -0.49330834 -0.26981592 -0.48238268 -0.12011653
0.11896985 -0.17983264 -0.22716604 -0.30777153 -0.2917321 -0.09334206 -0.20259337 -0.01807017
-0.34741426 -0.17041305 -0.5482447 -0.07623715 -0.054236557 -0.11102109 -0.042422198 -0.009226406
-0.51741964 -0.0899101 -0.102333255 -0.03978396 -0.15560827 -0.20545118 -0.07435645 -0.20662017
-0.05576957 -0.2681317 -0.3156573 -0.4866576 -0.07035166 -0.12256781 -0.4100445 -0.28143147
0.17557815 0.12524913 -0.1268997 0.05936508 0.113838755 0.041084304 -0.11937333 0.12244022
0.17774662 0.23342408 -0.11011728 -0.048107907 -0.13756557 0.025668759 0.09416603 -0.02729185
-0.017749645 -0.08076653 -0.035700105 0.13578692 0.20790102 -0.0005561822 -0.08390972 -0.022442324
0.110227115 0.09708342 0.08663016 -0.055920064 -0.04559869 0.0039108503 0.14965403 -0.00018658172
0.004880268 0.0005147652 0.18529533 0.008005078 0.07345022 -0.13081941 -0.057513926 0.016898492
-0.059985027 0.0332472 0.0065873656 0.13148054 -0.19807878 -0.102466665 -0.11919456 0.13689813
-0.0954762 -0.21542552 -0.17265101 0.1516203 0.045185946 0.16313912 -0.10792192 -0.10076863
-0.01765754 -0.17039566 -0.11285759 0.011890253

rnn.weight_ih_l1 f4 [180, 120]
00000000: dbb1 dc3d 9c7a 2c3d 92e6 41bc dbe8 623d
00000010: 030e 24be 7516 d93d f282 6abd 38ae 07ba
00000020: 402c 89be 8bf1 2e3e bc91 ae3e f387 d1bd
00000030: 1bcf 9fbd 4b37 ae3c 30ff a7bc 9a3d 7abc
00000040: 5413 66be 25e2 4cbe 9195 273e 2917 023e
00000050: cdec 523e ae65 37be a074 f0bd 3532 a1bc
00000060: 0f78 abbd c300 543e a08f cf3b 1161 95bd
00000070: 5f0b ec3d 9c2d 83bd 05d5 e4bd 2049 d9bd
00000080: cc1d 273d d7ff ef3d 8ad8 39be defb d43c
00000090: 9d05 b4bb 078f 0c3e be80 553d 465c 6abd
000000a0: e9e2 1c3e 4ab8 0bbe d253 093e c0b0 39be
000000b0: 1215 853d ebbc ca3c 0ef7 d6bd 1858 de3d
000000c0: 006a 03bd 2abb 953d c612 72be 2087 a03b
000000d0: 9415 1c3e d959 323e 476e 103c e3cb e63c
000000e0: e318 23bd 816f 073c 37da bc3d 439c 023e
000000f0: 824c a7bd 1635 22bb 0e9c a13d e1a6 febc
00000100: fd59 f93d 8cec 28be 3a3f 0d3c 8073 903e
00000110: 1e0e fa3e 47b0 993d 8fba 0fbe 27a8 2d3d
00000120: 6298 e7bd 4c84 4f3e 5022 a5bc b8d9 c63d
00000130: 6b78 183d 13cc 953d 8260 5abc 4ce8 523d
00000140: a68a 913b d0a0 76bd 6a3b 293e ca33 7abe
00000150: f845 013e 8863 cd3d 0ac8 c5bc 92d4 493d
00000160: b6eb c3bd 0c70 7d3e ed98 33bd 6f26 02bd
00000170: 3cd7 4a3e dcc8 9b3a 0e3e bd3d 4d38 853e
00000180: e56c 2cbc 389e b7bd 13d0 083d 4e00 41be
00000190: 5d29 303e 359b 223e 9b29 a6bd bf6a 253e
000001a0: d205 78be 00dd 95be 7cd1 84be 0c86 34be
000001b0: 84de 203e dd76 32bd a3a7 00be 4ee7 84bd
000001c0: 6ac0 243d faa1 ec3d bb3e 643d 5e85 bdbc
000001d0: 8544 f63d e02a 4ebd 9190 57be 0de2 2a3e
000001e0: 9f45 a4bd 7fe8 e7be b137 ef3d 7700 90be
000001f0: 854d 863d 29b7 0cbf 5a08 4ebd 6cb3 fd3d
00000200: fbac 3ebd 1ebb 5c3e eaa0 c23e d580 c73e
00000210: e0cd 3b3d 850e fe3d 8dcc 263c a999 85bc
00000220: 7a20 a73d abe8 963e a906 adbd 111e 303e
00000230: d570 8abe 81e9 b93d 467d 243c 218f 143e
00000240: 403f 3e3f f4d9 1cbd e78f 12be 9376 03bf
00000250: a367 bf3c e096 543d 810c 1d3e d3dc c53e
00000260: 2ae6 41be 0374 773d 1db3 e63e 4898 623d
00000270: e719 63bd adbd 913d 59a1 5fbd 9401 a1bd
00000280: dffd 2b3e a917 353f 3456 2dbe 2202 b1bd
00000290: f252 0dbe 561b 8c3d 226a 3abe d2d1 f53d
000002a0: 251c 063e a2ac 42bd 5853 93be 9c37 933d
000002b0: 5d09 3c3e 90c2 d9bd 8a74 793d 2418 36be
000002c0: 8f4b 523e e625 f93e 5ec8 303e 841d 43bd
000002d0: 0c99 4c3e ab7b 80bd 3976 dfbd 8b11 473e
000002e0: 65f9 283e 1140 9fbc 3aae e93e 8b9e 02bd
000002f0: b7b8 c8be 0b02 2a3e 78a9 9b3e 7ffe 5b3d
00000300: 5960 1c3d 0c07 9cba c374 bbbc ac1a dabe
00000310: 14b5 26bd c7ff 8d3d 8954 83be d588 2dbd
00000320: 55f1 8d3d e61e 39bc 8b73 e53d affe 15bd
00000330: bfb8 c83e a5c6 76be c0d4 cebe 7868 1b3e
00000340: f764 4d3e 8115 423e 9334 c13d ce80 8b3c
00000350: 7f84 febd 1eb5 2a3d 413b 1dbe 4261 e8be
00000360: f003 47bf 4913 c4be ace7 19bf d4aa 183f
00000370: c173 bbbe 5241 3fbe 345e 23be 8103 7ebd
00000380: b2f3 9e3d 7583 ab3d bbc3 82bd bfca c53e
00000390: a98a 663d c71a 09be 4429 763b cdc7 ec3e
000003a0: 0293 24be 51ca f8be cf1e f2bc 6db6 163c
000003b0: b5da e9bc d08b 5abe d066 d73d 3bbf 013f
000003c0: 5f30 df3d 82d9 bebd 547b 423e f938 863d
000003d0: 9fc9 46be ba30 c63d 0d8f 03be da75 993c
000003e0: e14f c63d 0b70 173e e759 f93d 1653 1f3e
000003f0: 1b16 04be c63c 043e b25d 01be 1653 f1bd
0.10776111 0.042109117 -0.011834757 0.05539785 -0.1602097 0.105999865 -0.057253785 -0.0005175802
-0.26791573 0.17084329 0.34095562 -0.102310084 -0.07803174 0.0212666 -0.020507425 -0.015273476
-0.2246831 -0.20008142 0.16365649 0.12704147 0.20598145 -0.17909881 -0.117409945 -0.01967726
-0.08372509 0.20703416 0.00633426 -0.072939046 0.11525606 -0.06405184 -0.11173443 -0.106096506
0.0407999 0.117187195 -0.1814901 0.025999006 -0.005493833 0.13726436 0.05212473 -0.057216905
0.15320934 -0.1364452 0.13410881 -0.18133831 0.064981595 0.024748286 -0.10496341 0.10856646
-0.03208351 0.07311089 -0.23639974 0.0048989207 0.15242606 0.17417087 0.008815355 0.028173393
-0.039818656 0.008266331 0.09221309 0.12754922 -0.081688896 -0.002475088 0.07891093 -0.031085433
0.12175367 -0.16496485 0.008621031 0.2821312 0.48838896 0.07504325 -0.1403601 0.04239669
-0.113083616 0.20265311 -0.020157963 0.09709495 0.037224215 0.07314315 -0.013328673 0.051491067
0.004441577 -0.060211957 0.16526571 -0.24433818 0.12624347 0.1002875 -0.024143238 0.04927499
-0.09566443 0.24749774 -0.043847013 -0.031774934 0.19808668 0.0011885422 0.092403516 0.26019517
-0.010524009 -0.08965725 0.03340156 -0.18847772 0.17203279 0.1587952 -0.08113404 0.16154002
-0.2422097 -0.29270172 -0.25941074 -0.1762926 0.15709883 -0.043570388 -0.12563948 -0.0648943
0.040222563 0.11554332 0.055723887 -0.023134883 0.12024788 -0.050333858 -0.21051241 0.16687794
-0.08021092 -0.45294568 0.11680544 -0.28125355 0.065577544 -0.5496698 -0.050300933 0.12387738
-0.046551686 0.21555755 0.38013393 0.3896548 0.045850635 0.12405113 0.010180605 -0.016308622
0.08160491 0.29474387 -0.08448536 0.1719897 -0.2703921 0.090777405 0.010039633 0.14507724
0.7431526 -0.038293794 -0.14312707 -0.51352805 0.023364848 0.051901698 0.15336801 0.38645038
-0.18935457 0.06041337 0.45058528 0.055321008 -0.055444624 0.07116256 -0.054597232 -0.07861629
0.16796063 0.7073923 -0.16927415 -0.08642985 -0.13801172 0.068411514 -0.18204549 0.12002911
0.13096674 -0.047527917 -0.28774524 0.07188341 0.18362947 -0.10632813 0.060902156 -0.17782646
0.20536636 0.48661727 0.17263934 -0.04763557 0.19980258 -0.06273588 -0.10911221 0.19440286
0.16501386 -0.019439729 0.45640737 -0.03188948 -0.39203426 0.16602342 0.30402732 0.053709503
0.03817782 -0.0011903956 -0.022882825 -0.42598474 -0.040700033 0.06933551 -0.25650433 -0.04236682
0.06930796 -0.011298871 0.11203679 -0.03661984 0.3920345 -0.24099214 -0.4039669 0.1517657
0.20058046 0.18953516 0.09433856 0.017029192 -0.124276154 0.041676633 -0.15354635 -0.45386702
-0.77740383 -0.38295963 -0.6011913 0.59635663 -0.3661175 -0.18677261 -0.15953904 -0.06201506
0.07761325 0.08374683 -0.06384989 0.38631245 0.05628458 -0.13389121 0.0037561217 0.46246186
-0.16071704 -0.48591855 -0.029555706 0.009198767 -0.02854667 -0.21342397 0.10517657 0.5068242
0.10897898 -0.0931883 0.18992358 0.065538354 -0.1941285 0.096772626 -0.12847538 0.018732954
0.096832044 0.14788835 0.12175351 0.15559039 -0.12899058 0.12913808 -0.12633398 -0.117834255
